…
/home/justin/.local/lib/anaconda/lib/python3.6/site-packages/h5py/__init__.py:36: FutureWarning: Conversion of the second argument of issubdtype from `float` to `np.floating` is deprecated. In future, it will be treated as `np.float64 == np.dtype(float).type`.
  from ._conv import register_converters as _register_converters
Using TensorFlow backend.
./gym/gym/__init__.py:15: UserWarning: gym.undo_logger_setup is deprecated. gym no longer modifies the global logging configuration
  warnings.warn("gym.undo_logger_setup is deprecated. gym no longer modifies the global logging configuration")
_________________________________________________________________
Layer (type)                 Output Shape              Param #
=================================================================
A_observation_input (InputLa (None, 1, 24)             0
_________________________________________________________________
flatten_1 (Flatten)          (None, 24)                0
_________________________________________________________________
A_h0 (Dense)                 (None, 512)               12800
_________________________________________________________________
dropout_1 (Dropout)          (None, 512)               0
_________________________________________________________________
activation_1 (Activation)    (None, 512)               0
_________________________________________________________________
A_h1 (Dense)                 (None, 64)                32832
_________________________________________________________________
dropout_2 (Dropout)          (None, 64)                0
_________________________________________________________________
activation_2 (Activation)    (None, 64)                0
_________________________________________________________________
A_h2 (Dense)                 (None, 64)                4160
_________________________________________________________________
dropout_3 (Dropout)          (None, 64)                0
_________________________________________________________________
activation_3 (Activation)    (None, 64)                0
_________________________________________________________________
A_h3 (Dense)                 (None, 64)                4160
_________________________________________________________________
dropout_4 (Dropout)          (None, 64)                0
_________________________________________________________________
activation_4 (Activation)    (None, 64)                0
_________________________________________________________________
A_last (Dense)               (None, 4)                 260
_________________________________________________________________
dropout_5 (Dropout)          (None, 4)                 0
_________________________________________________________________
activation_5 (Activation)    (None, 4)                 0
=================================================================
Total params: 54,212
Trainable params: 54,212
Non-trainable params: 0
_________________________________________________________________
None
__________________________________________________________________________________________________
Layer (type)                    Output Shape         Param #     Connected to
==================================================================================================
A_observation_input (InputLayer (None, 1, 24)        0
__________________________________________________________________________________________________
flatten_2 (Flatten)             (None, 24)           0           A_observation_input[0][0]
__________________________________________________________________________________________________
Q_s1 (Dense)                    (None, 512)          12800       flatten_2[0][0]
__________________________________________________________________________________________________
dropout_6 (Dropout)             (None, 512)          0           Q_s1[0][0]
__________________________________________________________________________________________________
activation_6 (Activation)       (None, 512)          0           dropout_6[0][0]
__________________________________________________________________________________________________
Q_action_input (InputLayer)     (None, 4)            0
__________________________________________________________________________________________________
Q_h1 (Dense)                    (None, 64)           32832       activation_6[0][0]
__________________________________________________________________________________________________
Q_a1 (Dense)                    (None, 64)           320         Q_action_input[0][0]
__________________________________________________________________________________________________
dropout_8 (Dropout)             (None, 64)           0           Q_h1[0][0]
__________________________________________________________________________________________________
dropout_7 (Dropout)             (None, 64)           0           Q_a1[0][0]
__________________________________________________________________________________________________
activation_8 (Activation)       (None, 64)           0           dropout_8[0][0]
__________________________________________________________________________________________________
activation_7 (Activation)       (None, 64)           0           dropout_7[0][0]
__________________________________________________________________________________________________
Q_add (Add)                     (None, 64)           0           activation_8[0][0]
                                                                 activation_7[0][0]
__________________________________________________________________________________________________
Q_h2 (Dense)                    (None, 64)           4160        Q_add[0][0]
__________________________________________________________________________________________________
dropout_9 (Dropout)             (None, 64)           0           Q_h2[0][0]
__________________________________________________________________________________________________
activation_9 (Activation)       (None, 64)           0           dropout_9[0][0]
__________________________________________________________________________________________________
Q_h3 (Dense)                    (None, 64)           4160        activation_9[0][0]
__________________________________________________________________________________________________
dropout_10 (Dropout)            (None, 64)           0           Q_h3[0][0]
__________________________________________________________________________________________________
activation_10 (Activation)      (None, 64)           0           dropout_10[0][0]
__________________________________________________________________________________________________
Q_h4 (Dense)                    (None, 64)           4160        activation_10[0][0]
__________________________________________________________________________________________________
dropout_11 (Dropout)            (None, 64)           0           Q_h4[0][0]
__________________________________________________________________________________________________
activation_11 (Activation)      (None, 64)           0           dropout_11[0][0]
__________________________________________________________________________________________________
Q_last (Dense)                  (None, 1)            65          activation_11[0][0]
==================================================================================================
Total params: 58,497
Trainable params: 58,497
Non-trainable params: 0
__________________________________________________________________________________________________
None
2018-04-11 13:52:02.220945: I tensorflow/core/platform/cpu_feature_guard.cc:137] Your CPU supports instructions that this TensorFlow binary was not compiled to use: SSE4.1 SSE4.2 AVX AVX2 FMA
…
